…
лэйблы\n","print(class_labels[:20])"],"metadata":{"id":"YROa3XL2t8Oj"},"execution_count":null,"outputs":[]},{"cell_type":"code","source":["# Выводим информацию о всей сети\n","vgg16"],"metadata":{"id":"XaSRp3sVur-5","colab":{"base_uri":"https://localhost:8080/"},"executionInfo":{"status":"ok","timestamp":1673890994525,"user_tz":-180,"elapsed":8,"user":{"displayName":"Глеб Колонин","userId":"16800121630135430864"}},"outputId":"b90304ef-5819-4410-bbf7-953554963702"},"execution_count":8,"outputs":[{"output_type":"execute_result","data":{"text/plain":["VGG(\n","  (features): Sequential(\n","    (0): Conv2d(3, 64, kernel_size=(3, 3), stride=(1, 1), padding=(1, 1))\n","    (1): ReLU(inplace=True)\n","    (2): Conv2d(64, 64, kernel_size=(3, 3), stride=(1, 1), padding=(1, 1))\n","    (3): ReLU(inplace=True)\n","    (4): MaxPool2d(kernel_size=2, stride=2, padding=0, dilation=1, ceil_mode=False)\n","    (5): Conv2d(64, 128, kernel_size=(3, 3), stride=(1, 1), padding=(1, 1))\n","    (6): ReLU(inplace=True)\n","    (7): Conv2d(128, 128, kernel_size=(3, 3), stride=(1, 1), padding=(1, 1))\n","    (8): ReLU(inplace=True)\n","    (9): MaxPool2d(kernel_size=2, stride=2, padding=0, dilation=1, ceil_mode=False)\n","    (10): Conv2d(128, 256, kernel_size=(3, 3), stride=(1, 1), padding=(1, 1))\n","    (11): ReLU(inplace=True)\n","    (12): Conv2d(256, 256, kernel_size=(3, 3), stride=(1, 1), padding=(1, 1))\n","    (13): ReLU(inplace=True)\n","    (14): Conv2d(256, 256, kernel_size=(3, 3), stride=(1, 1), padding=(1, 1))\n","    (15): ReLU(inplace=True)\n","    (16): MaxPool2d(kernel_size=2, stride=2, padding=0, dilation=1, ceil_mode=False)\n","    (17): Conv2d(256, 512, kernel_size=(3, 3), stride=(1, 1), padding=(1, 1))\n","    (18): ReLU(inplace=True)\n","    (19): Conv2d(512, 512, kernel_size=(3, 3), stride=(1, 1), padding=(1, 1))\n","    (20): ReLU(inplace=True)\n","    (21): Conv2d(512, 512, kernel_size=(3, 3), stride=(1, 1), padding=(1, 1))\n","    (22): ReLU(inplace=True)\n","    (23): MaxPool2d(kernel_size=2, stride=2, padding=0, dilation=1, ceil_mode=False)\n","    (24): Conv2d(512, 512, kernel_size=(3, 3), stride=(1, 1), padding=(1, 1))\n","    (25): ReLU(inplace=True)\n","    (26): Conv2d(512, 512, kernel_size=(3, 3), stride=(1, 1), padding=(1, 1))\n","    (27): ReLU(inplace=True)\n","    (28): Conv2d(512, 512, kernel_size=(3, 3), stride=(1, 1), padding=(1, 1))\n","    (29): ReLU(inplace=True)\n","    (30): MaxPool2d(kernel_size=2, stride=2, padding=0, dilation=1, ceil_mode=False)\n","  )\n","  (avgpool): AdaptiveAvgPool2d(output_size=(7, 7))\n","  (classifier): Sequential(\n","    (0): Linear(in_features=25088, out_features=4096, bias=True)\n","    (1): ReLU(inplace=True)\n","    (2): Dropout(p=0.5, inplace=False)\n","    (3): Linear(in_features=4096, out_features=4096, bias=True)\n","    (4): ReLU(inplace=True)\n","    (5): Dropout(p=0.5, inplace=False)\n","    (6): Linear(in_features=4096, out_features=1000, bias=True)\n","  )\n",")"]},"metadata":{},"execution_count":8}]},{"cell_type":"markdown","source":["Удалил часть ненужных ячеек из теоретического Colab-а"],"metadata":{"id":"12MU8VReF2VB"}},{"cell_type":"code","source":["# Задаем набор трансформаций с теми параметрами, которые были заданы при обучении модели\n","transform = transforms.Compose([transforms.ToTens
…
":["![image.png](data:image/png;base64,…)"],"metadata":{"id":"EQMCcBZw0M12"}},{"cell_type":"code","source":["# Посмотрим, как будет выглядеть измененная нами сеть VGG16\n","vgg16"],"metadata":{"id":"zP4X5NDJ92bT","colab":{"base_uri":"https://localhost:8080/"},"executionInfo":{"status":"ok","timestamp":1673891083061,"user_tz":-180,"elapsed":252,"user":{"displayName":"Глеб Колонин","userId":"16800121630135430864"}},"outputId":"2349a78b-fdeb-4a10-c11a-b2f426cf6efe"},"execution_count":22,"outputs":[{"output_type":"execute_result","data":{"text/plain":["VGG(\n","  (features): Sequential(\n","    (0): Conv2d(3, 64, kernel_size=(3, 3), stride=(1, 1), padding=(1, 1))\n","    (1): ReLU(inplace=True)\n","    (2): Conv2d(64, 64, kernel_size=(3, 3), stride=(1, 1), padding=(1, 1))\n","    (3): ReLU(inplace=True)\n","    (4): MaxPool2d(kernel_size=2, stride=2, padding=0, dilation=1, ceil_mode=False)\n","    (5): Conv2d(64, 128, kernel_size=(3, 3), stride=(1, 1), padding=(1, 1))\n","    (6): ReLU(inplace=True)\n","    (7): Conv2d(128, 128, kernel_size=(3, 3), stride=(1, 1), padding=(1, 1))\n","    (8): ReLU(inplace=True)\n","    (9): MaxPool2d(kernel_size=2, stride=2, padding=0, dilation=1, ceil_mode=False)\n","    (10): Conv2d(128, 256, kernel_size=(3, 3), stride=(1, 1), padding=(1, 1))\n","    (11): ReLU(inplace=True)\n","    (12): Conv2d(256, 256, kernel_size=(3, 3), stride=(1, 1), padding=(1, 1))\n","    (13): ReLU(inplace=True)\n","    (14): Conv2d(256, 256, kernel_size=(3, 3), stride=(1, 1), padding=(1, 1))\n","    (15): ReLU(inplace=True)\n","    (16): MaxPool2d(kernel_size=2, stride=2, padding=0, dilation=1, ceil_mode=False)\n","    (17): Conv2d(256, 512, kernel_size=(3, 3), stride=(1, 1), padding=(1, 1))\n","    (18): ReLU(inplace=True)\n","    (19): Conv2d(512, 512, kernel_size=(3, 3), stride=(1, 1), padding=(1, 1))\n","    (20): ReLU(inplace=True)\n","    (21): Conv2d(512, 512, kernel_size=(3, 3), stride=(1, 1), padding=(1, 1))\n","    (22): ReLU(inplace=True)\n","    (23): MaxPool2d(kernel_size=2, stride=2, padding=0, dilation=1, ceil_mode=False)\n","    (24): Conv2d(512, 512, kernel_size=(3, 3), stride=(1, 1), padding=(1, 1))\n","    (25): ReLU(inplace=True)\n","    (26): Conv2d(512, 512, kernel_size=(3, 3), stride=(1, 1), padding=(1, 1))\n","    (27): ReLU(inplace=True)\n","    (28): Conv2d(512, 512, kernel_size=(3, 3), stride=(1, 1), padding=(1, 1))\n","    (29): ReLU(inplace=True)\n","    (30): MaxPool2d(kernel_size=2, stride=2, padding=0, dilation=1, ceil_mode=False)\n","  )\n","  (avgpool): AdaptiveAvgPool2d(output_size=(7, 7))\n","  (classifier): Sequential(\n","    (0): Linear(in_features=25088, out_features=1600, bias=True)\n","    (1): Linear(in_features=1600, out_features=10, bias=True)\n","  )\n",")"]},"metadata":{},"execution_count":22}]},{"cell_type":"code","source":["# Проверим, включен ли у нас GPU\n","device = torch.device('cuda' if torch.cuda.is_available() else 'cpu')"],"metadata":{"id":"4S5EjZmM-IRO","executionInfo":{"status":"ok","timestamp":1673891085288,"user_tz":-180,"elapsed":10,"user":{"displayName":"Глеб Колонин","user
…
a":{"text/plain":["device(type='cuda')"]},"metadata":{},"execution_count":24}]},{"cell_type":"code","source":["# Переключим нашу модель на нужный процессор \n","vgg16.to(device)"],"metadata":{"id":"_fIuxhUq-bLe","colab":{"base_uri":"https://localhost:8080/"},"executionInfo":{"status":"ok","timestamp":1673891093004,"user_tz":-180,"elapsed":4936,"user":{"displayName":"Глеб Колонин","userId":"16800121630135430864"}},"outputId":"f5de6d87-4159-4ead-fc4e-bf3ef8a716bd"},"execution_count":25,"outputs":[{"output_type":"execute_result","data":{"text/plain":["VGG(\n","  (features): Sequential(\n","    (0): Conv2d(3, 64, kernel_size=(3, 3), stride=(1, 1), padding=(1, 1))\n","    (1): ReLU(inplace=True)\n","    (2): Conv2d(64, 64, kernel_size=(3, 3), stride=(1, 1), padding=(1, 1))\n","    (3): ReLU(inplace=True)\n","    (4): MaxPool2d(kernel_size=2, stride=2, padding=0, dilation=1, ceil_mode=False)\n","    (5): Conv2d(64, 128, kernel_size=(3, 3), stride=(1, 1), padding=(1, 1))\n","    (6): ReLU(inplace=True)\n","    (7): Conv2d(128, 128, kernel_size=(3, 3), stride=(1, 1), padding=(1, 1))\n","    (8): ReLU(inplace=True)\n","    (9): MaxPool2d(kernel_size=2, stride=2, padding=0, dilation=1, ceil_mode=False)\n","    (10): Conv2d(128, 256, kernel_size=(3, 3), stride=(1, 1), padding=(1, 1))\n","    (11): ReLU(inplace=True)\n","    (12): Conv2d(256, 256, kernel_size=(3, 3), stride=(1, 1), padding=(1, 1))\n","    (13): ReLU(inplace=True)\n","    (14): Conv2d(256, 256, kernel_size=(3, 3), stride=(1, 1), padding=(1, 1))\n","    (15): ReLU(inplace=True)\n","    (16): MaxPool2d(kernel_size=2, stride=2, padding=0, dilation=1, ceil_mode=False)\n","    (17): Conv2d(256, 512, kernel_size=(3, 3), stride=(1, 1), padding=(1, 1))\n","    (18): ReLU(inplace=True)\n","    (19): Conv2d(512, 512, kernel_size=(3, 3), stride=(1, 1), padding=(1, 1))\n","    (20): ReLU(inplace=True)\n","    (21): Conv2d(512, 512, kernel_size=(3, 3), stride=(1, 1), padding=(1, 1))\n","    (22): ReLU(inplace=True)\n","    (23): MaxPool2d(kernel_size=2, stride=2, padding=0, dilation=1, ceil_mode=False)\n","    (24): Conv2d(512, 512, kernel_size=(3, 3), stride=(1, 1), padding=(1, 1))\n","    (25): ReLU(inplace=True)\n","    (26): Conv2d(512, 512, kernel_size=(3, 3), stride=(1, 1), padding=(1, 1))\n","    (27): ReLU(inplace=True)\n","    (28): Conv2d(512, 512, kernel_size=(3, 3), stride=(1, 1), padding=(1, 1))\n","    (29): ReLU(inplace=True)\n","    (30): MaxPool2d(kernel_size=2, stride=2, padding=0, dilation=1, ceil_mode=False)\n","  )\n","  (avgpool): AdaptiveAvgPool2d(output_size=(7, 7))\n","  (classifier): Sequential(\n","    (0): Linear(in_features=25088, out_features=1600, bias=True)\n","    (1): Linear(in_features=1600, out_features=10, bias=True)\n","  )\n",")"]},"metadata":{},"execution_count":25}]},{"cell_type":"markdown","source":["### Дообучим модель на нашем датасете"],"metadata":{"id":"Ud_oembO-m8y"}},{"cell_type":"code","source":["# Возьмем нужную функцию ошибки\n","criterion = nn.CrossEntropyLoss()\n","\n","# Выбираем оптимизатор Adam. Берем параметры только последнего слоя\n","optimize
…
